reload_model.pt (torch, 28371 bytes, 7 tensors)

lstm.weight_ih_l0 f4 [128, 10]
0	0x3dacf3b4	0.0844492
1	0x3e43a110	0.19104409
2	0x3e8438f9	0.25824717
3	0x3e141fe7	0.14465295
4	0xbe4f12f2	-0.20222071
5	0xbc5bc209	-0.013412961
6	0xbe5fe9c6	-0.21866521
7	0x3d80c135	0.06286851
8	0x3e12e1e8	0.14343989
9	0xbe719db7	-0.2359532
10	0x3d92f142	0.071749225
11	0x3e220d9b	0.15825503
12	0x3e883068	0.2659943
13	0x3bdefc39	0.0068049696
14	0x3db5836c	0.08862957
15	0x3d6d829d	0.05798589
16	0xbd493ce0	-0.04913032
17	0xbdc1fad7	-0.09471672
18	0x3eb448d4	0.35211813
19	0x3e3500e2	0.17676118
20	0x3e9ba6f9	0.30400828
21	0x3ec12565	0.37723842
22	0x3ec2362d	0.37931958
23	0x3e1a94b7	0.15095793
24	0x3d5aaaae	0.05338543
25	0x3ec06d97	0.3758361
26	0x3e3d9020	0.1851201
27	0xbd99b5b8	-0.07505363
28	0x3dde4adc	0.10854122
29	0xbe258b7f	-0.16166495
30	0x3df1c06f	0.11804282
31	0x3eccdff4	0.40014613
32	0x3e2434b8	0.16035736
33	0x3e26156f	0.16219114
34	0x3e705d41	0.23473074
35	0x3b134216	0.002246981
36	0xbdecf8f3	-0.11570921
37	0x3cffc0f4	0.031219937
38	0x3e2091ca	0.15680614
39	0x3e9069fd	0.28205863
40	0x3e33b524	0.17549568
41	0x3da69b66	0.08135109
42	0x3e8bc793	0.273007
43	0x3e20b315	0.15693314
44	0x3e1b31ea	0.1515576
45	0xbd6efac2	-0.05834461
46	0xbd95410e	-0.07287799
47	0x3cebad7c	0.028769247
48	0x3e0ba007	0.13635264
49	0x3dee6cb0	0.11641824
50	0xbdca2a09	-0.09871299
51	0xbd4590c3	-0.04823376
52	0xbc9d38e8	-0.019192174
53	0xbdc5e30a	-0.09662445
54	0x3c1a1ad0	0.009405807
55	0x3d8a299a	0.06746216
56	0xbdfc869b	-0.123303615
57	0x3e56e75a	0.20986691
58	0x3d88664b	0.06660136
59	0xbebe30aa	-0.37146503
60	0x3dc3e4c1	0.09565116
61	0x3deb2b74	0.114828974
62	0x3db16906	0.0866261
63	0x3e3ebdee	0.1862714
64	0x3e5a8195	0.21338494
65	0x3e848809	0.25885037
66	0xbd843500	-0.064554214
67	0x3c8bf341	0.017083766
68	0x3cc2acbd	0.023764009
69	0xbe5b7112	-0.21429852
70	0x3df8a443	0.121407054
71	0x3e1bf6f4	0.15230924
72	0x3e8934f4	0.26798213
73	0x3e8e077d	0.27740088
74	0xbc158c07	-0.009127623
75	0x3ec32667	0.38115236
76	0x3e8a6945	0.2703344
77	0x3ec2e2da	0.380637
78	0x3e7cd292	0.24689701
79	0x3c9a923a	0.018868554
80	0x3e38c6b2	0.18044546
81	0x3ebecfa6	0.37267798
82	0x3e5b0180	0.21387291
83	0xbe689ce7	-0.22716103
84	0x3ec1ee43	0.37877092
85	0xbe6b6c01	-0.22990419
86	0xbe84a688	-0.25908303
87	0xbec8494f	-0.3911843
88	0xbee1466d	-0.43999043
89	0xbec1042d	-0.37698498
90	0x3c9a0fca	0.018806357
91	0x3d9f67fd	0.07783506
92	0x3b8e471a	0.004341972
93	0xbdc1cbfe	-0.094627365
94	0xbd3ee403	-0.046604168
95	0x3dd28511	0.10279287
96	0xbdbc0e85	-0.09182457
97	0xbd6fb3cd	-0.05852108
98	0x3de22c50	0.11043608
99	0xbec59517	-0.3859031
100	0x3e8e8568	0.27836156
101	0x3e81bfc5	0.2534162
102	0x3e48bdd3	0.19603662
103	0x3e5fb4ab	0.21846263
104	0x3c874c05	0.016515741
105	0x3e2357c3	0.15951447
106	0xbcef8e2b	-0.029242596
107	0xbdabbd74	-0.08385745
108	0x3e4e6344	0.20155054
109	0x3eb41090	0.35168886
110	0x3e6fce08	0.23418438
111	0x3e450eb0	0.19243884
112	0x3dfa4495	0.12220112
113	0x3e877611	0.26457265
114	0x3dbecfc5	0.09316973
115	0x3e9f0205	0.31056228
116	0x3d8b9c70	0.068169475
117	0x3d16a7a1	0.036780957
118	0xbc151d97	-0.009101293
119	0x3eaf1d2c	0.34201944
120	0x3df48722	0.11939837
121	0x3eaff846	0.34369105
122	0x3e9c0612	0.3047338
123	0x3ee42b88	0.44564462
124	0x3dd72291	0.1050464
125	0x3d5a1436	0.05324193
126	0x3df75e68	0.120785534
127	0x3e8eeed6	0.27916592
128	0xbd73b604	-0.059499756
129	0x3cbca8e9	0.023029761
130	0x3e8828e4	0.26593697
131	0x3e8bd3c6	0.27310008
132	0x3e88cd78	0.2671926
133	0x3d9903fb	0.07471462
134	0x3e4f7a72	0.20261553
135	0xbe53927c	-0.20661348
136	0x3eaaff38	0.3339784
137	0x3e35c0d4	0.1774934
138	0x3e819234	0.25306857
139	0x3dcde0bf	0.100526325
140	0x3cf3c9cf	0.029759316
141	0x3e992e09	0.29917935
142	0x3c459c4b	0.012061189
143	0x3e8ef825	0.27923694
144	0x3d2914a1	0.04127944
145	0x3e29daed	0.1658742
146	0x3d8b946a	0.06815417
147	0x3eb04dad	0.34434262
148	0x3eb77867	0.35834047
149	0xbeaf3b8a	-0.34225112
150	0x3e768dfc	0.240776
151	0x3de443a7	0.11145716
152	0x3e2533cd	0.16133042
153	0x3d8b679e	0.06806873
154	0x3ead0106	0.33789843
155	0x3da7c809	0.081924506
156	0xbce63679	-0.028102146
157	0xbe1b4122	-0.15161565
158	0x3d93f99b	0.07225343
159	0xbaf9670a	-0.00190279
160	0x3dc17643	0.09446385
161	0x3e02a0ea	0.12756696
162	0x3e433e97	0.19066845
163	0x3dbf27e1	0.09333778
164	0xbe034fbe	-0.12823388
165	0xbd69b666	-0.057058714
166	0xbdedd721	-0.11613298
167	0x3e891646	0.26774806
168	0xbcb9e99c	-0.022694401
169	0xbdd8cfcf	-0.10586511
170	0xbda9a57c	-0.08283517
171	0x3c8d48c6	0.017246615
172	0x3e119b47	0.1421939
173	0x3e847ee2	0.25878054
174	0x3ebfec99	0.37485197
175	0x3d777fe1	0.06042469
176	0xbe1ae371	-0.15125825
177	0xbe34e885	-0.17666824
178	0x3e0219a0	0.12705088
179	0x3e319635	0.17342456
180	0x3d853343	0.06503918
181	0x3ec6bc48	0.38815522
182	0x3e13d22b	0.14435641
183	0x3e29b88e	0.16574308
184	0x3d9e0375	0.07715503
185	0x3e704d5d	0.23467012
186	0x3e12316c	0.14276665
187	0xbd8350ca	-0.06411894
188	0x3d6acadd	0.05732237
189	0xbdcb1e3f	-0.09917878
190	0xbe47e178	-0.19519603
191	0x3d3dc6de	0.046332233
192	0x3cfde249	0.03099169
193	0x3e817d31	0.25290826
194	0x3ec1dcc6	0.3786375
195	0xbdec542d	-0.11539493
196	0xbe9a2da9	-0.3011296
197	0xbe116e0e	-0.14202139
198	0xbe08ba06	-0.13352212
199	0xbc9c9909	-0.019115942
200	0x3da37757	0.07981747
201	0x3dab0d1f	0.08352112
202	0x3ea0880e	0.313538
203	0x3ea4db8a	0.32198745
204	0x3e4835aa	0.19551721
205	0x3df0636c	0.11737713
206	0x3eaa2b9a	0.3323639
207	0x3d67aeb4	0.056563094
208	0x3e340a37	0.17582022
209	0xbd972f3d	-0.07382057
210	0x3e5d4061	0.2160659
211	0x3eab9f4e	0.33519977
212	0x3e6a81bf	0.22901057
213	0x3d92849b	0.07154199
214	0xbeaea47f	-0.34109876
215	0xbe5299c5	-0.20566471
216	0xbe79bba1	-0.24387981
217	0xbb8ff466	-0.0043931482
218	0xbe85c842	-0.26129347
219	0x3e18dcc9	0.14927973
220	0x3cb9ede0	0.022696435
221	0x3e9fc385	0.31203857
222	0xbd64bdd1	-0.055845086
223	0x3d1f21eb	0.038850706
224	0xbe714fc1	-0.2356558
225	0xbda5872c	-0.080824226
226	0xbeb24d68	-0.3482468
227	0x3e736a37	0.23770986
228	0x3d9fda77	0.07805341
229	0x3df1a03d	0.11798141
230	0x3df6902a	0.12039216
231	0x3d0b08a1	0.033943776
232	0x3e4dfae9	0.20115246
233	0x3ecf105f	0.40442178
234	0x3d5b927b	0.05360649
235	0x3dced5a0	0.100993395
236	0xbe8e4ccf	-0.27792975
237	0x3d7a2fee	0.061080866
238	0x3ed8add3	0.42320117
239	0x3e0b4cdb	0.13603537
240	0xbe59fefa	-0.21288672
241	0x3e07febf	0.13280772
242	0x3e8857c9	0.26629475
243	0xbbe488a7	-0.006974298
244	0x3e431f0b	0.1905481
245	0xbc5d0aff	-0.013491391
246	0xbea25ede	-0.31713003
247	0xbdff3d48	-0.1246286
248	0x3ba1416d	0.0049211294
249	0xbe8994fc	-0.2687148
250	0x3e404650	0.18776822
251	0x3de13855	0.109970726
252	0x3e9e006f	0.30859706
253	0x3e3c9c69	0.1841904
254	0x3e381bcf	0.17979358
255	0x3ea2edba	0.31821996

lstm.weight_hh_l0 f4 [128, 32]
0	0x3df57fc2	0.119872585
1	0xbdf695c6	-0.12040286
2	0xbd732bd2	-0.059367962
3	0xbe26e65a	-0.1629881
4	0xbe0b58d4	-0.13608104
5	0xbdf3f154	-0.11911264
6	0x3d72f714	0.059317663
7	0x3d8ea20e	0.06964503
8	0x3e130e91	0.14361025
9	0x3e1c1011	0.15240504
10	0xbe19be75	-0.1501406
11	0x3e2b1957	0.16708885
12	0xbe1cb72e	-0.15304253
13	0x3dc648fa	0.09681888
14	0x3dc1603e	0.09442185
15	0x3dcde2c6	0.10053019
16	0x3da7b01e	0.081878886
17	0x3d3c8090	0.046021044
18	0x3e027ddf	0.12743329
19	0xbded9252	-0.11600174
20	0x3dfbee82	0.12301351
21	0x3de64276	0.11243145
22	0x3db09a26	0.086231515
23	0x3cd721f0	0.0262613
24	0x3d1359a0	0.035974145
25	0x3e189207	0.14899455
26	0x3c87e228	0.016587332
27	0xbd8d7e90	-0.069089055
28	0x3e2572a1	0.16157009
29	0x3da88502	0.08228494
30	0xbbf01360	-0.0073265284
31	0xbd57888e	-0.052620463
32	0xbd32e5ac	-0.043676063
33	0x3e2ed1e5	0.17072256
34	0x3db2ce5a	0.08730765
35	0x3dc11866	0.09428482
36	0x3e0e7793	0.13912801
37	0xbdf55fb8	-0.119811475
38	0x3d666bac	0.056255028
39	0x3e095cdf	0.13414334
40	0x3d8013d2	0.062537804
41	0xbe18c94d	-0.1492054
42	0xbdd881f2	-0.1057166
43	0x3e2becad	0.16789503
44	0xbb9bbc80	-0.0047526956
45	0xbcfad028	-0.030616835
46	0x3d5b0f2c	0.053481266
47	0xbd6a3df8	-0.057188004
48	0x3dcbf3fe	0.09958647
49	0x3d38e4c8	0.045140058
50	0xbbcf0600	-0.006317854
51	0xbe218891	-0.15774752
52	0x3dd597ee	0.10429369
53	0x3de4e2f6	0.11176102
54	0xbd01f580	-0.031728268
55	0x3cbbdf80	0.022933722
56	0xbcb5aaa0	-0.022176087
57	0xbddf05c7	-0.10889774
58	0x3d57c450	0.052677453
59	0xbe2d0f6c	-0.16900414
60	0xbdaa1682	-0.08305074
61	0x3de77ffe	0.113037094
62	0xbdb1bdf5	-0.086788096
63	0xbe1ced06	-0.15324792
64	0x3d1cb028	0.038253933
65	0xbd54145e	-0.051777236
66	0x3d550cd8	0.052014202
67	0x3d22ac3c	0.039715037
68	0xbba4c180	-0.00502795
69	0x3e329313	0.17438917
70	0x3ceee678	0.02916263
71	0xbe14b720	-0.14522982
72	0x3de45ff2	0.111511126
73	0xbd62975a	-0.05532012
74	0xbcf510a0	-0.029915154
75	0x3d76f080	0.060287952
76	0x3e12e1e3	0.14343981
77	0xbde4a34e	-0.111639604
78	0xbe260e63	-0.16216426
79	0x3ddb7c36	0.10717051
80	0xbd8468e3	-0.06465318
81	0x3de5651a	0.11200924
82	0xbdb4bdf4	-0.08825293
83	0x3e0cbd0d	0.13743992
84	0x3e1b6b89	0.1517774
85	0x3e34f089	0.17669882
86	0xbd18a134	-0.03726311
87	0x3da7502e	0.0816959
88	0x3d5a10b0	0.05323857
89	0xbe186a20	-0.14884233
90	0x3c886c00	0.01665306
91	0x3d1065b4	0.03525324
92	0xbd08dabc	-0.033411726
93	0xbd27c518	-0.040959448
94	0x3e078c17	0.13237034
95	0xbb8d12c0	-0.0043052137
96	0xbdafc400	-0.08582306
97	0x3ae39e00	0.0017365813
98	0x3dbc7406	0.09201817
99	0xbd6df880	-0.058098316
100	0xbe247dcb	-0.16063611
101	0x3e08a1b7	0.1334294
102	0x3e04216f	0.12903379
103	0xbd272afc	-0.040812477
104	0xbdfc29f2	-0.12312688
105	0xbe1e2ade	-0.1544604
106	0xb950e800	-0.00019922853
107	0x3cd7b380	0.02633071
108	0x3d298c7c	0.041393742
109	0xbdd65106	-0.10464673
110	0xbd3abd7c	-0.045590863
111	0x3df2038a	0.11817081
112	0x3d802ff6	0.06259148
113	0xbe025905	-0.12729271
114	0xbdfc7920	-0.1232779
115	0xbda46822	-0.08027674
116	0x3e26764d	0.16256066
117	0xbd18df2c	-0.03732221
118	0xbe122cbc	-0.14274877
119	0x3e25263f	0.16127871
120	0x3e0af323	0.13569312
121	0xbdb972fe	-0.09055136
122	0x3d92e428	0.071724236
123	0xbd82cb5f	-0.06386446
124	0xbe2b9337	-0.16755377
125	0x3e338b6f	0.17533658
126	0x3e1b08bb	0.15140049
127	0xbdfaf60a	-0.122539595
128	0xbd2080e0	-0.039185405
129	0xbe0bfede	-0.13671443
130	0xbe1f43c7	-0.15553199
131	0x3e2c77e9	0.16842617
132	0xbe1d2de5	-0.15349539
133	0x3e162dd9	0.14665927
134	0xbd7b260a	-0.061315574
135	0xbd3dcd38	-0.04633829
136	0xbd43d314	-0.04780872
137	0x3e0e991f	0.13925599
138	0xbd84645e	-0.06464456
139	0xbd28797c	-0.04113148
140	0xb9ad5800	-0.00033062696
141	0xbcd01160	-0.02539891
142	0xbe2dfd65	-0.16991194
143	0x3e074ff1	0.13214089
144	0xbdcfae30	-0.101406455
145	0x3e12dd0d	0.14342137
146	0x3e0eff3b	0.1396455
147	0x3e190cd3	0.14946298
148	0xbdac942d	-0.084267
149	0x3b336d00	0.0027378201
150	0xbc205f90	-0.009788409
151	0x3e31970f	0.1734278
152	0x3df4912a	0.1194175
153	0x3e220e73	0.15825824
154	0xbe2f9b15	-0.17149003
155	0x3e1cee1f	0.15325211
156	0x3cdceb18	0.02696757
157	0x3d9c6952	0.07637276
158	0x3cb69850	0.022289425
159	0x3e1d03b9	0.15333451
160	0x3d31bd44	0.04339339
161	0xbd202080	-0.039093494
162	0xbe0db449	-0.13838305
163	0x3dbde2ca	0.09271772
164	0x3e2eada5	0.17058428
165	0x3b3531c0	0.0027648062
166	0x3d93b5ac	0.072123855
167	0xbe156d66	-0.14592513
168	0x3dd90876	0.10597317
169	0x3e2a3adb	0.16624014
170	0xbe04313e	-0.1290941
171	0x3d8342a2	0.064091936
172	0xbd19929c	-0.037493333
173	0xbdaf09a2	-0.08546759
174	0x3c4aff20	0.012389928
175	0xbd2df2e8	-0.04246798
176	0x3d0a2464	0.03372611
177	0x3e127099	0.14300765
178	0x3ba222a0	0.0049479753
179	0x3d7660ec	0.060151026
180	0xbd328564	-0.043584242
181	0xbca591a0	-0.020211041
182	0x3dbc94b2	0.09208049
183	0xbe2b44b0	-0.16725421
184	0xbd483980	-0.04888296
185	0x3d8890ce	0.06668244
186	0x3d288320	0.041140676
187	0xbddd2ca5	-0.10799531
188	0xbce3dbd0	-0.027814776
189	0x3e1311a1	0.14362194
190	0x3df8d44e	0.12149869
191	0x3d8dbf6e	0.06921278
192	0xbe1d214f	-0.15344737
193	0xbca45b08	-0.020062938
194	0x3e008f61	0.12554695
195	0x3d9cb87e	0.076523766
196	0xbe1b425b	-0.15162031
197	0x3dd2bfb6	0.10290472
198	0xbe0f486c	-0.1399247
199	0x3e283467	0.1642624
200	0x3e2228b9	0.15835847
201	0x3db10fda	0.086456016
202	0x3e2eb7d5	0.17062314
203	0x3d9bc23e	0.07605408
204	0xbd82f460	-0.06394267
205	0xbdcefe76	-0.10107128
206	0x3d18975c	0.037253723
207	0x3d5a4060	0.05328405
208	0xbe1492c1	-0.14509107
209	0xbd62cf36	-0.055373393
210	0x3e2253e3	0.15852313
211	0x3beec820	0.0072870404
212	0xbe019576	-0.12654671
213	0x3d152420	0.036411405
214	0x3d9002e0	0.07031798
215	0x3e1a8f43	0.15093713
216	0x3e28d019	0.16485633
217	0x3e1417d3	0.14462213
218	0x3ca72810	0.020404845
219	0xbe05437e	-0.13014027
220	0x3e2f46c5	0.1711684
221	0x3defaf32	0.11703338
222	0x3dd9f7de	0.1064298
223	0xbe09a14f	-0.1344044
224	0xbe2d2257	-0.16907631
225	0x3d5387e4	0.051643267
226	0x3e0f00e3	0.13965182
227	0x3dd7aed6	0.10531394
228	0x3df37a76	0.11888592
229	0x3c75f2c0	0.015011489
230	0xbe28adee	-0.16472599
231	0xbe23e090	-0.16003633
232	0x3ddb87b2	0.10719241
233	0x3e25cecb	0.16192167
234	0xbc1378f0	-0.009001002
235	0x3dead7ae	0.11466919
236	0x3d930c7c	0.071801156
237	0xbe1f4606	-0.15554056
238	0x3c942e60	0.01808852
239	0xbdfeadb2	-0.124354735
240	0x3c6f3b50	0.014601544
241	0x3df5d91e	0.120043024
242	0xbbe8b480	-0.0071015954
243	0x3dee885a	0.11647101
244	0x3e03c219	0.12867011
245	0xbc07a950	-0.008280113
246	0x3d533fdc	0.051574573
247	0x3e25df83	0.16198544
248	0xbdfd7c54	-0.12377229
249	0x3e1e0bff	0.15434264
250	0x3dd4b37a	0.10385795
251	0xbe117b41	-0.14207174
252	0x3e2f86df	0.17141293
253	0xbd01107c	-0.03150986
254	0x3df1d002	0.118072525
255	0x3df8e06a	0.121521786

lstm.bias_ih_l0 f4 [128]
0	0x3e51a16f	0.20471738
1	0x3d9f2849	0.07771356
2	0x3d19ab95	0.03751715
3	0x3e8cb328	0.27480435
4	0x3d926e5d	0.071499564
5	0xbe364417	-0.17799412
6	0x3e39e3da	0.18153325
7	0x3daea9d6	0.085284874
8	0x3e72a560	0.23695898
9	0x3d0e6d29	0.034772072
10	0x3e71e420	0.23622179
11	0x3e9b14ef	0.3028941
12	0x3e832d71	0.25620607
13	0x3e7568e2	0.23965791
14	0x3c0233e8	0.007946946
15	0x3e7105a4	0.23537308
16	0x3ea28ed7	0.31749603
17	0xbc468c1e	-0.0121183675
18	0x3e63182b	0.22177188
19	0xbdf235ad	-0.11826644
20	0x3e8ad955	0.27118936
21	0x3e23e9c1	0.16007139
22	0xbdddad36	-0.10824053
23	0x3e39a548	0.18129456
24	0x3e1b926c	0.15192574
25	0x3e1b8027	0.15185605
26	0x3db93ca0	0.090447664
27	0x3cbc73c9	0.02300443
28	0x3e4e8618	0.2016834
29	0x3e1cdf87	0.15319644
30	0x3e4fe13c	0.20300764
31	0x3e512f2a	0.20428148
32	0xbe1d061a	-0.15334359
33	0x3db1bdea	0.08678801
34	0x3d9e579a	0.077315524
35	0xbe1ed732	-0.15511778
36	0xbe301440	-0.17195225
37	0xbd894510	-0.06702626
38	0x3de14f0a	0.11001404
39	0x3d1d31d4	0.038377598
40	0x3d81b482	0.06333257
41	0xbd9f5be5	-0.07781199
42	0xbe213823	-0.1574407
43	0xbd30ff0c	-0.04321198
44	0xbca71060	-0.02039355
45	0xbd2c5194	-0.042069986
46	0x3d99d432	0.07511176
47	0xbd87b471	-0.06626213
48	0x3d35a6fc	0.0443487
49	0xbe1dfbd7	-0.154281
50	0x3c375e50	0.011191919
51	0x3d0bf0f8	0.034165353
52	0x3c9aefc8	0.018913165
53	0xbcad8788	-0.02118279
54	0x3e2ce043	0.16882424
55	0xbdfae978	-0.12251562
56	0x3d5fd650	0.054647744
57	0xbdb72a8c	-0.08943662
58	0xbd1f55c4	-0.03890015
59	0xbe0c53f2	-0.13703898
60	0xbdf26d23	-0.118372224
61	0xbe085511	-0.133137
62	0x3c864df8	0.0163946
63	0xbd5cd9da	-0.053918697
64	0x3eb4608d	0.35229912
65	0x3e235601	0.15950777
66	0x3d5aa4d2	0.05337984
67	0xbd453eab	-0.048155468
68	0xbe3a28ab	-0.18179576
69	0x3e38b36f	0.18037198
70	0x3da057d4	0.07829252
71	0x3e09d150	0.13458753
72	0x3e04b592	0.12959889
73	0xbde74140	-0.11291742
74	0xbe5098da	-0.20370808
75	0x3e852ca9	0.26010635
76	0xbd7cb3f6	-0.06169506
77	0x3d177d87	0.036984947
78	0x3eab23b5	0.3342568
79	0xbdd4c002	-0.10388185
80	0x3d14ea6a	0.036356367
81	0x3da0f930	0.07860029
82	0xbcb648fc	-0.022251599
83	0x3e274209	0.16333784
84	0x3dcf5d6a	0.10125239
85	0x3d4b1f9a	0.049590684
86	0x3e8cc541	0.27494243
87	0xbd0f8d5a	-0.035046913
88	0x3e1aac10	0.15104699
89	0x3e1ad7fd	0.15121455
90	0x3dd9af7b	0.10629173
91	0x3df2d16e	0.11856352
92	0x3e13ff2c	0.14452809
93	0xbd87a4c1	-0.06623221
94	0x3daf300b	0.08554085
95	0xbdb8c145	-0.09021238
96	0x3df841bd	0.121219136
97	0x3e814e88	0.25255227
98	0x3dc066ec	0.09394631
99	0x3e204302	0.15650561
100	0x3e5bf7cb	0.21481244
101	0x3da6efb2	0.08151187
102	0x3e1cb349	0.15302767
103	0x3e90ad69	0.282573
104	0x3e5aa105	0.21350487
105	0x3e551e2e	0.20812294
106	0x3de24308	0.110479414
107	0xbbae6dcf	-0.005323149
108	0x3eb66871	0.35626557
109	0x3e7f1fc4	0.24914461
110	0x3e5c3056	0.21502814
111	0x3eade43d	0.33963194
112	0x3e635045	0.22198589
113	0x3e74933a	0.23884287
114	0x3eafe13f	0.34351537
115	0x3ea8aaa1	0.3294268
116	0x3ed5bdf8	0.41746497
117	0xbc233932	-0.009962367
118	0x3e1e27de	0.15444896
119	0x3d863e77	0.06554883
120	0x3d76fdbc	0.060300574
121	0x3eb76183	0.35816583
122	0x3e48d130	0.19611049
123	0x3e7401b8	0.2382878
124	0x3d4e8fe1	0.050430182
125	0x3e3fb10a	0.18719879
126	0x3e6e548e	0.23274443
127	0x3ea25cb6	0.31711358

lstm.bias_hh_l0 f4 [128]
0	0x3e812d61	0.25229934
1	0x3e313716	0.1730617
2	0x3eb4393a	0.3519991
3	0x3e11dbed	0.14244051
4	0x3dd88b83	0.10573485
5	0xbce08cca	-0.027410883
6	0x3d8ee698	0.06977576
7	0x3e45c1fa	0.19312277
8	0x3e0048c7	0.12527762
9	0x3e41d5b9	0.18929185
10	0x3dca75ec	0.09885773
11	0x3df76c77	0.12081235
12	0x3e453229	0.19257416
13	0x3dabebd5	0.08394591
14	0x3e7da046	0.2476817
15	0x3e146fd0	0.14495778
16	0x3d068890	0.03284508
17	0xbdde6256	-0.108586
18	0x3e19f890	0.15036225
19	0xbd8c993c	-0.06865165
20	0x3eb990be	0.36243242
21	0x3e9cd0f4	0.3062817
22	0xbdf20b80	-0.118186
23	0x3ea4c0b6	0.32178277
24	0x3cdab8f4	0.02669952
25	0x3da6a8b4	0.08137646
26	0x3d0fd165	0.035111804
27	0x3eab0794	0.3340422
28	0x3df086dc	0.117444724
29	0x3ec8f9a5	0.39252964
30	0x3e29790e	0.16550085
31	0x3eb8dad3	0.3610445
32	0xbe1fdbcc	-0.1561119
33	0xbd567376	-0.052356206
34	0x3e30dced	0.17271776
35	0xbddbb04d	-0.10726986
36	0xbdd9a5e2	-0.10627343
37	0x3d8e577a	0.069502786
38	0xbe291afe	-0.16514203
39	0x39ec6600	0.00045089424
40	0xbdc42e6a	-0.09579165
41	0x3df0c9d2	0.11757244
42	0x3e1b58f1	0.15170647
43	0xbb5b3e00	-0.0033453703
44	0x3c2d8c90	0.010592595
45	0xbdb06dc3	-0.086146854
46	0xbe155c40	-0.14585972
47	0xbd14b570	-0.036305845
48	0x3c647870	0.01394473
49	0xbd7470ce	-0.05967789
50	0xbdb39193	-0.087680005
51	0x3e1c2061	0.15246727
52	0x3e264407	0.16236888
53	0xbcf41238	-0.029793844
54	0x3d7c5060	0.06160009
55	0x3e247ebd	0.16063972
56	0x3e0d481f	0.13797043
57	0x3d8599dc	0.06523487
58	0xbe34e6cb	-0.17666166
59	0xbcfdae88	-0.030967012
60	0x3d9a1fe6	0.075256154
61	0x3dfe20ae	0.12408577
62	0x3dc5947a	0.0964746
63	0xbe06ddae	-0.13170502
64	0x3e9c369a	0.30510408
65	0xbd9993c0	-0.07498884
66	0xbe2b29dc	-0.16715187
67	0x3d3c79fa	0.046014763
68	0xbaa212f0	-0.0012365263
69	0x3d9791dc	0.07400867
70	0xbdcfb0df	-0.10141157
71	0x3dd87987	0.105700545
72	0x3e088420	0.13331652
73	0x3db7a8d0	0.08967745
74	0xbe25fa43	-0.16208749
75	0x3e8afd41	0.27146342
76	0xbdd431a0	-0.10361028
77	0x3d629f06	0.055327438
78	0x3e6e6637	0.2328118
79	0x3d49ec64	0.049297705
80	0x3e7f9726	0.24960002
81	0xbd69ef8a	-0.057113208
82	0x3c70f7fa	0.01470756
83	0x3e871ddc	0.26389968
84	0xbe1b6a6c	-0.15177315
85	0x3b175258	0.0023089852
86	0x3c1c01d9	0.009521925
87	0xba9b4d0a	-0.0011848521
88	0xbd0034a1	-0.03130019
89	0xbe01850c	-0.1264841
90	0x3e5e0dc8	0.21684945
91	0xbdb5787a	-0.0886087
92	0x3e8a5d1b	0.2702416
93	0x3d347d97	0.044065084
94	0x3ea4e277	0.3220403
95	0x3de35e4f	0.11101972
96	0x3a9e2edc	0.0012068409
97	0x3d5aa3f8	0.05337903
98	0x3e7c478e	0.24636671
99	0x3dc1ede2	0.09469201
100	0x3e1b8745	0.1518832
101	0xbe55b64d	-0.20870323
102	0x3e407660	0.18795156
103	0x3d94f3be	0.07273053
104	0x3eea742c	0.45791757
105	0x3e914712	0.28374535
106	0x3d1114e7	0.035420325
107	0xbe0a4e8e	-0.13506529
108	0x3ea6310b	0.32459292
109	0x3eb2d28a	0.34926254
110	0x3e9b6f0d	0.30358163
111	0x3e449b2d	0.1919982
112	0x3dc1a30b	0.09454926
113	0xbc1f7933	-0.009733486
114	0x3dd2c5ee	0.10291658
115	0x3deda00f	0.116027944
116	0x3ea1fb7e	0.31637186
117	0x3e64394b	0.2228748
118	0x3c92585a	0.017864395
119	0x3ea1adac	0.31577814
120	0x3e71082e	0.23538277
121	0x3e07fbe0	0.13279676
122	0x3de9878b	0.11402806
123	0x3e291182	0.16510585
124	0x3e6f6abc	0.2338056
125	0x3e66a696	0.22524485
126	0x3e80ed53	0.25181064
127	0x3e8c5bc4	0.27413762

fc.1.weight f4 [16, 32]
0	0xbe187362	-0.14887765
1	0xbe21de94	-0.15807563
2	0xbe105f2b	-0.14098804
3	0xbe0c3c57	-0.13694893
4	0x3b00ee00	0.001967311
5	0x3e0f00bd	0.13965125
6	0xbe12c021	-0.14331104
7	0xbe0fdeb9	-0.14049806
8	0x3df20e56	0.118191406
9	0x3de3edba	0.11129327
10	0xbe183105	-0.1486245
11	0x3d92049e	0.07129787
12	0xbdf4ee95	-0.119595684
13	0xbe0f5172	-0.13995913
14	0x3e079749	0.13241304
15	0xb8fa3000	-0.0001192987
16	0xbd8da5a7	-0.06916361
17	0xbe33210d	-0.17493077
18	0xbdc49911	-0.095995076
19	0x3abc5200	0.00143677
20	0x3ba03120	0.0048886687
21	0xbde67fdc	-0.11254856
22	0xbd4429a4	-0.047891274
23	0xbdc89ddc	-0.09795734
24	0xbe1c7140	-0.15277576
25	0xbd0e730c	-0.034777686
26	0x3dd6ec42	0.10494281
27	0xbe1df9b4	-0.15427285
28	0xbdb97591	-0.09055627
29	0xbbad59e0	-0.005290255
30	0x3dca3e42	0.09875156
31	0x3d81dd1a	0.06341
32	0xbe1d6ecb	-0.15374295
33	0x3e57f35b	0.21088926
34	0x3eb6d1a1	0.3570681
35	0x3e29444e	0.16529962
36	0x3e8bf776	0.27337235
37	0xbe43973c	-0.1910066
38	0x3e95aeb1	0.2923484
39	0xbeabc6f7	-0.33550236
40	0xbe1a7217	-0.15082584
41	0xbe108c27	-0.14115964
42	0x3ea0ab1b	0.31380543
43	0x3eb3157e	0.34977335
44	0x3ed21a34	0.41035616
45	0x3eba433d	0.36379424
46	0xbecd0173	-0.40040168
47	0x3e812a1d	0.25227442
48	0xbe2fb374	-0.171583
49	0x3e5de24b	0.21668355
50	0x3ece7a49	0.4032767
51	0x3eac93bb	0.3370646
52	0x3e19ad0d	0.1500742
53	0xbe7ed08f	-0.24884246
54	0xbe358ff7	-0.177307
55	0x3ebb2f10	0.36559343
56	0xbe897878	-0.26849723
57	0x3deb5869	0.11491472
58	0x3e74d33c	0.23908705
59	0x3e632590	0.22182298
60	0xbe96397f	-0.2934074
61	0xbe69b0b2	-0.2282131
62	0xbe4ced59	-0.20012416
63	0xbed5032f	-0.4160399
64	0x3ddf6729	0.10908348
65	0xbe4c6369	-0.19959797
66	0xbc2d5ad4	-0.010580737
67	0xbe9e459e	-0.3091249
68	0x3d11cc30	0.03559512
69	0x3e51b192	0.20477894
70	0xbe7893c4	-0.24275118
71	0x3dbf4149	0.09338624
72	0xbe675d86	-0.2259427
73	0x3e87840b	0.26467928
74	0xbe3872b8	-0.18012512
75	0xbe5ca26b	-0.21546333
76	0xbe554e06	-0.20830545
77	0x3e705385	0.2346936
78	0x3e180049	0.14843859
79	0xbe4f8ed5	-0.2026933
80	0x3e8dff95	0.27734056
81	0xbe49b81f	-0.19699143
82	0xbe3baeea	-0.18328443
83	0xbdec1552	-0.11527504
84	0xbecdec79	-0.40219477
85	0x3e93f93b	0.28901085
86	0x3d5ccd82	0.053906925
87	0xbe552ba4	-0.20817429
88	0xbe0dfd41	-0.1386614
89	0xbdf0ec8a	-0.11763866
90	0xbde33192	-0.11093439
91	0xbddab6c3	-0.1067939
92	0x3e7b4b78	0.24540508
93	0xbe4ec7ba	-0.20193377
94	0x3db8b878	0.090195596
95	0x3e5efec3	0.21776871
96	0xbdfa6c57	-0.122276954
97	0x3e088368	0.13331378
98	0xbd54116c	-0.051774427
99	0xbdfc04b9	-0.12305588
100	0xbe7e5476	-0.24836907
101	0x3d9af5a2	0.07566382
102	0xbe165cee	-0.14683887
103	0xbcb5a15e	-0.022171672
104	0xbdf0de2a	-0.117611244
105	0xbe04f63d	-0.12984557
106	0x3e4b1e06	0.19835672
107	0x3e1d6675	0.15371116
108	0xbe4042ba	-0.18775454
109	0x3db99c0e	0.09062968
110	0xbcbed7dc	-0.02329629
111	0xbe3e4cb5	-0.18583949
112	0x3dbbfec0	0.09179449
113	0x3d5d209c	0.053986177
114	0xbe7316d7	-0.23739181
115	0xbd50e07f	-0.050995346
116	0x3dae63ef	0.085151546
117	0x3cc95c64	0.024580188
118	0xbe42bab9	-0.19016542
119	0xbe6bed43	-0.23039727
120	0xbe0a6fcb	-0.13519208
121	0x3ca99b5c	0.020703964
122	0x3e1ee4c3	0.15516953
123	0x3ce4030a	0.02783348
124	0x3d25d60c	0.040487334
125	0xbe0cf8c3	-0.1376677
126	0x3e33aeb2	0.1754711
127	0x3df7b918	0.12095851
128	0x3e32682f	0.17422555
129	0x3eaf4ba4	0.34237397
130	0xbe96b04a	-0.29431373
131	0xbcc13dd0	-0.023589045
132	0xbe9d1bae	-0.3068518
133	0x3d91832b	0.071050964
134	0xbb9fdf93	-0.004878947
135	0x3e66dcc4	0.22545153
136	0x3eb36ef4	0.35045588
137	0x3d683717	0.056693163
138	0xbe6cc37d	-0.23121448
139	0xbaa7a704	-0.0012790863
140	0xbe9baeb0	-0.30406713
141	0xbea40749	-0.32036808
142	0x3d96d112	0.07364096
143	0xbdba2b47	-0.09090286
144	0x3e4880d8	0.195804
145	0x3e322bd7	0.17399536
146	0xbe9f61b0	-0.31129217
147	0x3e0b59a0	0.13608408
148	0xbd1aef5c	-0.037825927
149	0x3dc8215f	0.0977199
150	0x3e63708d	0.22210903
151	0xbe9db950	-0.30805445
152	0x3e92a495	0.2864119
153	0xbe290278	-0.16504848
154	0x3d99ecc7	0.07515865
155	0xbe8aa047	-0.27075407
156	0x3c88b810	0.01668933
157	0x3eb28ec3	0.34874544
158	0x3ea66c95	0.32504717
159	0xbd74aeb2	-0.059736915
160	0x3dbc63b2	0.09198703
161	0x3d694cff	0.056958195
162	0xbdddb7b7	-0.108260565
163	0x3db766a4	0.08955124
164	0xbe085bf5	-0.13316329
165	0xbe435ee0	-0.1907916
166	0x3df1745d	0.11789773
167	0xbdc1ac46	-0.09456687
168	0x3e2c3c5e	0.16819903
169	0xbc91a88e	-0.017780568
170	0xbe3b6716	-0.18301043
171	0xbd0138a4	-0.031548157
172	0xbe6960e4	-0.22790867
173	0xbbd84e22	-0.006601111
174	0x3d8d5ee4	0.069028646
175	0x3ddffc8c	0.10936841
176	0xbdc4ec60	-0.096153975
177	0xbe132c60	-0.14372396
178	0xbe5b1b31	-0.21397091
179	0xbd87dcb9	-0.066338964
180	0xbd8567c0	-0.06513929
181	0x3e054836	0.13015828
182	0xbd61f3c3	-0.05516411
183	0x3d5202f4	0.051272348
184	0xbd88704f	-0.06662046
185	0x3d74f4d4	0.0598038
186	0xbdfbcd1c	-0.12294981
187	0xbd350922	-0.044198163
188	0x3c613e6a	0.013747791
189	0x3e700af6	0.23441681
190	0x3d7741ad	0.060365368
191	0x3d05d827	0.032676842
192	0x3e26283e	0.16226289
193	0xbe04b6e1	-0.12960388
194	0x3ca6884e	0.020328667
195	0xbdd7d19a	-0.10538025
196	0xbe294545	-0.1653033
197	0xbe1bd04b	-0.15216176
198	0x3e0f1419	0.1397251
199	0xbe757924	-0.23971993
200	0x3e57758a	0.21040931
201	0x3c0bc57e	0.0085309725
202	0xbe833522	-0.25626475
203	0xbe1292c8	-0.14313805
204	0xbe471406	-0.19441232
205	0xbe1c82ac	-0.15284222
206	0xbd6274bf	-0.05528712
207	0x3e08ef7c	0.13372606
208	0xbdc8e44f	-0.098091714
209	0x3baa0e39	0.0051896838
210	0xbe3a20ea	-0.18176618
211	0xbcd4bd56	-0.025969189
212	0xbde64df6	-0.112453386
213	0x3d8f368d	0.069928266
214	0x3e38a99c	0.18033451
215	0xbdc6fcf8	-0.09716219
216	0x3ec6d3f9	0.38833597
217	0x3ce7ec61	0.028310956
218	0xbd0abca3	-0.033871304
219	0x3e075f00	0.13219833
220	0xbd0ecde4	-0.03486432
221	0x3ea894a0	0.32925892
222	0xbe97c766	-0.29644316
223	0xbcf27c52	-0.029600296
224	0xbe0ea512	-0.13930157
225	0x3ddc111e	0.10745452
226	0xbe255227	-0.1614462
227	0xbd8bc688	-0.06824976
228	0x3ce00c70	0.02734968
229	0x3e06143b	0.13093655
230	0xbdacd119	-0.0843832
231	0xbd6d9e40	-0.058012247
232	0x3d71f624	0.05907263
233	0xbd7e47f0	-0.062080324
234	0xbb1d4800	-0.0023999214
235	0xbd9a1adb	-0.075246535
236	0x3d1530d4	0.03642352
237	0x3dc6f4f6	0.09714691
238	0xbdbf720c	-0.093479246
239	0x3d65f510	0.056141913
240	0x3b9c6600	0.0047729015
241	0xbd2dce6c	-0.042433187
242	0xbd974801	-0.073867805
243	0xbe25d1ad	-0.16193266
244	0x3d8a0ea0	0.06741071
245	0xbd25d504	-0.04048635
246	0x3df599c6	0.119922206
247	0x3d5c1638	0.053732127
248	0x3d3982bc	0.045290694
249	0x3dff2b6a	0.124594525
250	0xbd5a929e	-0.05336248
251	0xbdaa36fe	-0.0831127
252	0xbd201a80	-0.039087772
253	0xbe2f4677	-0.17116724
254	0xbdabda8c	-0.08391294
255	0xbce0ffd8	-0.027465746

fc.1.bias f4 [16]
0	0xbd9cf5df	-0.07664084
1	0x3e458c74	0.1929186
2	0xbd166e3c	-0.03672622
3	0xbe28fd72	-0.16502932
4	0x3da7e7b6	0.08198492
5	0xbdba43f9	-0.09094996
6	0xbd84f0e1	-0.064912565
7	0xbe1ff31a	-0.1562008
8	0x3e4ae8a8	0.19815314
9	0x3e5272b1	0.20551564
10	0x3dd1195b	0.10209914
11	0xbdbc2d2d	-0.09188304
12	0x3e190155	0.14941914
13	0x3e18c6cc	0.14919585
14	0x3da96ad0	0.08272326
15	0x3c8c411c	0.01712089

fc.3.weight f4 [1, 16]
0	0x3cbb6bf0	0.022878617
1	0xbe8cd601	-0.27507022
2	0xbec2a1b2	-0.3801399
3	0x3e8e2d54	0.27768958
4	0x3ed8960f	0.42301986
5	0x3da7c0ea	0.08191092
6	0x3e813aa0	0.2524004
7	0xbe2d1e66	-0.16906127
8	0xbeb6f14b	-0.35730967
9	0xbefc95b6	-0.4933297
10	0x3eb5f168	0.3553574
11	0x3e31c137	0.17358862
12	0xbef29bb9	-0.47384432
13	0x3ea64086	0.32471102
14	0x3ebfdf49	0.3747504
15	0x3e532a58	0.20621622
